models/params.npz (npz, 64646 bytes, 4 tensors)

W1 f8 [10, 784]
00000000: f2e6 0e39 1308 963f f5c7 6f2b 7f64 a83f
00000010: 2db2 707b d8dd a33f 2899 d05b 64b8 913f
00000020: ec1d a309 b00d a63f 78a6 1b63 6c07 a83f
00000030: d082 c290 ab76 903f a792 1d0a 2dc7 943f
00000040: 545e effa 8102 893f 2b9f d79f ab27 2b3f
00000050: 38f4 bb73 1a7f a83f 5123 91d6 28f2 703f
00000060: 4b26 592a 8081 853f b48b 3f0b 00f3 963f
00000070: b407 97e6 3727 a23f 5ae7 5c09 883b 9e3f
00000080: ffdd 0cd7 d723 893f 7834 0841 f6f4 873f
00000090: c329 3bc2 8f9e 963f 5f9f f509 f038 a63f
000000a0: 2991 a159 5b9c 9b3f a85c c2aa 7b9c a13f
000000b0: bd64 57b2 a39d a43f d67e 7a9c 069c a33f
000000c0: eea5 53a0 6cf5 a63f 3dea 77c0 6afa 9b3f
000000d0: 7f3a 9217 5ade 9a3f aed3 b6dd 3026 953f
000000e0: 18cf f67b 7625 a83f d74f bd11 f58b 5c3f
000000f0: 4331 3ed7 eab7 673f a264 0a5e e4c6 a13f
00000100: ac96 392b 8730 953f ba2c b55e 44f3 a33f
00000110: 28ad 2286 a68b 7f3f 52bf 44c4 fe11 903f
00000120: df93 064f 5328 7e3f c500 d975 6d93 633f
00000130: 6779 6012 233d 833f 6c3a 02a2 e06a 703f
00000140: bac6 edfd f7d2 523f 88cd 89ac 5fd2 a53f
00000150: b312 5d36 c56e 743f cda5 15ad 23d9 813f
00000160: 810d f8d4 7639 a03f 32f8 3b6e b867 943f
00000170: 25c1 85b9 8617 8a3f 3dd4 dcdb a6e1 a73f
00000180: dfe0 ad9c 832b 853f 6a20 eb84 3a2b a43f
00000190: aace b6b5 01d2 713f 2d8e f456 1818 9c3f
000001a0: 2116 4ad7 2834 9d3f b9de fadb fcda a03f
000001b0: a72d 97f4 3332 a73f 933e 49d6 2c87 a73f
000001c0: f47d 56d4 9542 823f bd54 6196 62c6 8c3f
000001d0: 6043 b7aa b67e 993f b1f8 4130 c793 a83f
000001e0: 17ed 88c7 8737 893f 196b 94b7 c26a a43f
000001f0: e08e 7ca4 e99b 943f 2ec4 320f 7d3c a03f
00000200: 1b58 50ba 3a33 333f 60f7 e7d0 b1f3 603f
00000210: caa9 3c35 6665 9b3f f421 55ee 7ef9 663f
00000220: a5a3 9371 c565 713f 642c 3d1d d8a9 a23f
00000230: bbd2 04b1 1f51 763f 5103 958a ac5e 813f
00000240: dc35 2d46 672b 763f 994c f2e5 ff63 873f
00000250: 1555 c2c7 98ef 83bf ddb9 4d62 5ceb 853f
00000260: e1eb f870 ccab a53f bdc7 7aab f99b 903f
00000270: 5e82 fa85 ac37 753f 5544 133c 5890 943f
00000280: 45e6 1a5d f94e 853f ae95 b5c1 b846 a63f
00000290: 40bc da5b ebeb 783f 2047 ed0f 2c10 9d3f
000002a0: 10d8 bf70 be91 a63f 2d22 6b58 1ca0 953f
000002b0: c11f 126b 33c5 9c3f a5d3 752f 9128 a93f
000002c0: 968b 5473 632e 933f 2b6f 978a 348d 713f
000002d0: 8056 9ed4 3de2 973f 1dbd 9255 f237 a63f
000002e0: 6338 26bc bb85 79bf ed9a 7d08 3d93 853f
000002f0: fc52 3774 7f6c a13f 16cd ca1e 1144 82bf
00000300: ce40 91d7 7ffa 7abf c352 c892 5a29 91bf
00000310: bf1b 3a1a 2093 703f fb8a 1150 03a9 883f
00000320: 7b9a 81db e2c4 6e3f 5f60 c92a e9df 913f
00000330: c8ca 66b7 409d 963f 6a4e 5af6 08c2 843f
00000340: 18a9 154b 621e 893f dab2 a013 2a67 953f
00000350: 920b fc96 fe3c a63f 2463 5502 0bb6 a13f
00000360: ef09 737b 11f6 823f 4ebc ed4c c7a2 593f
00000370: 98e5 b57c 7c2d 993f 2e6a 936d 78e6 843f
00000380: 3843 9595 045a 863f afb4 c04f 6535 773f
00000390: 25ee e470 1ad9 a83f 442b 2763 0f3e a23f
000003a0: 05e5 acf5 f3a3 a33f 96a8 cc2c 053a 973f
000003b0: f7ad d583 ddef 923f 65f8 05bd 42c1 883f
000003c0: dcf9 04a2 a1bb 78bf bf25 0fca 10ea 9bbf
000003d0: 23e8 5220 45d3 85bf d3f4 9d5a 4595 8fbf
000003e0: bf3a 60f9 fda2 97bf 8b34 bc62 4349 b3bf
000003f0: dfff 6e64 7cb7 b1bf f247 e97a 3cbc a4bf
00000400: 2245 851a 320a a2bf c7d5 81c5 c77d 97bf
00000410: 7218 fba1 99b8 873f c519 305e d847 6c3f
00000420: 290e 14d9 09d5 8d3f c18c a689 b264 a23f
00000430: 3af8 6685 227c a33f 54be 16dd 0d77 a53f
00000440: 405d 31df f0cd 933f f0de 9c97 e2d3 a53f
00000450: 4a09 0781 b4c6 a23f 84d3 30fb 2fdb a53f
00000460: 4bfc 26a8 ef76 823f 3936 623e 7a78 a03f
00000470: 68bb 7e1c 477d a53f 2d53 cda1 a352 743f
00000480: 7ebb add6 1444 a63f 92b5 0743 8d54 9a3f
00000490: 4eec c907 1489 713f 2e95 ded2 8d41 7d3f
000004a0: 933f d2fa db34 96bf 7c59 0d51 e041 70bf
000004b0: 20bd 2b57 18d4 80bf 9642 347f 2faf a5bf
000004c0: b847 00e6 b595 b0bf 07c0 47ef 8b1d b6bf
000004d0: 8ecc b5b0 afbe bbbf f9a6 09e2 88d0 babf
000004e0: 6371 82cd 7f51 bdbf 8314 6c8c de01 babf
000004f0: 7c44 e77f 5576 a9bf e01a 803e 0082 a8bf
00000500: 7978 5b6a 6fd7 883f 64f3 7fa6 9f9f aa3f
00000510: 34b2 3247 a8f0 a13f 15a6 1cec f7c2 a83f
00000520: b67c ff29 0968 a13f e3f5 b1b8 9b52 9f3f
00000530: 3dc7 0ea4 8571 9f3f 4d11 326f 4ab3 8a3f
00000540: 6b94 2a0e a68a 9a3f 9b7b 3cf4 7f54 813f
00000550: 60ae d767 63ca 913f 25ba f075 ddfa a43f
00000560: 3170 16e0 9ecf 8abf eb55 d84f 97bc 99bf
00000570: 20cc a24e 6a26 943f 796a 7e35 ecf1 9abf
00000580: bf57 d288 c077 a03f e56e 1859 5374 6dbf
00000590: 47c1 d0af 3d3f a63f 5e91 2fc9 d57d 873f
000005a0: a4d3 7b7b 241e 82bf 46be 2787 0783 873f
000005b0: 4e2e 254c b65e 9fbf b6ce d870 3482 563f
000005c0: 7df6 5ed8 cc27 8b3f e1db 9d14 42c0 83bf
000005d0: 5218 9114 a5e4 87bf 7dfa 9ed6 5e18 713f
000005e0: 8945 ce11 27e8 8abf 218a a596 e966 9e3f
000005f0: 5501 ee58 29ba ad3f 743c a518 8021 b53f
00000600: d45d 3e4e 3c3e b33f b452 74f9 7042 ab3f
00000610: dbb3 6e36 f481 a23f 428a 3ad0 289b 993f
00000620: cbac aa92 3cc2 a23f 6d0b 73ed 08b8 953f
00000630: dbbb 1d70 6ed9 a43f 3ea0 f936 aafe a23f
00000640: ac45 04fa 1a80 85bf 4d9b 1fde 09e5 90bf
00000650: 54fc b2e4 3a77 803f d566 0c98 c297 ad3f
00000660: c23b b100 9983 ae3f c0a5 134c 677d ae3f
00000670: ec61 450c b8e4 b63f 54f5 b972 fbb4 bb3f
00000680: 502f 1aac bb26 c03f 59f0 683d 5f53 bd3f
00000690: b31a 264b d5df b43f 6f15 5d9d f1dc bb3f
000006a0: 9d93 c8be be19 c43f 28d3 71af 12c3 bd3f
000006b0: 434b 2302 a7a5 b33f 826e 4a6e e2f9 ab3f
000006c0: e22f 42b9 0636 a43f a40b 8890 76c8 a73f
000006d0: 8329 bc5d 288f ad3f d9ce 8bee b6d2 b43f
000006e0: b259 fee8 c19d af3f 165e 0222 a754 a23f
000006f0: 4ae7 2fda 616c a33f 22bb 1cd6 b010 953f
00000700: ffdc 129e 36a0 923f 7449 ee56 de10 8f3f
00000710: 4587 f713 1ce3 723f 95d5 b518 c9ec a63f
00000720: 4d65 9537 8228 40bf 9a0c 34e8 977a 713f
00000730: 7462 da92 ae63 a43f 91fd 156b c087 a73f
00000740: 98d5 f769 1d53 ba3f 9c85 bea3 cf9d bf3f
00000750: d037 58f9 bb5d c23f 4365 c56c 51ab c43f
00000760: 0fce 5274 d087 c33f 217a 6f4f c7db bb3f
00000770: f609 5b70 fdc1 bd3f 9267 66a9 e94a ba3f
00000780: 5262 ede0 699c c13f 41bd c2c5 eb0d c03f
00000790: 62ca 4fa1 fe77 b33f 50e8 916f 91b4 b03f
000007a0: a88f 3942 9ac5 ab3f c5dd 9e15 99fa a43f
000007b0: f816 7312 493b b13f 8444 f825 17be ba3f
000007c0: 0626 18a0 c3c6 b13f 103f 19ae 9d7e a53f
000007d0: 792e 133c aa0b 973f aa2f b3b4 4861 a73f
000007e0: f620 0e05 6597 963f 6832 3c93 5f5d 843f
000007f0: 6161 16b8 5202 823f eb9b 4eb8 425f a53f
0.021515179021412707 0.04764172940475923 0.038801922863374784 0.017304962257321282 0.04307317845956135 0.04693163595022737 0.016077690802037747 0.020291045896913797
0.012211814375333287 0.00020717592262475248 0.047844721439084414 0.004137191318542247 0.010500909130445232 0.022411347090279768 0.03545546235865463 0.029523969241587046
0.012275396585763152 0.011697696551914868 0.022089239339757826 0.043403149810557144 0.02696364149632405 0.034396996111518974 0.040265193481624696 0.038299757577304014
0.044841188975464394 0.027322452542629206 0.02623883026950091 0.020653499157294135 0.047160818703018303 0.0017423527960618212 0.002895315812514594 0.03472055099445838
0.02069293214153471 0.038965355454445086 0.007701540455097779 0.015693646172791738 0.00736267607172622 0.002389634885531763 0.009393953321759253 0.004008176300102844
0.0011489316745749005 0.04262064915829017 0.004988451348087497 0.008714941711064928 0.031688416955172556 0.019926912048497232 0.012740185295769433 0.046643461550424516
0.010336902827234372 0.039392307973287924 0.004350668601023658 0.027435665423707945 0.028519285335752657 0.03292074380209215 0.04530489311909074 0.04595317951009039
0.008916063826119626 0.014050264562835197 0.02489743630377761 0.04800245727618469 0.012312947060414232 0.03987701884235246 0.020126009621107666 0.03171149073148914
0.0002929705026998312 0.002069327637626836 0.02675399494106915 0.0028045157547789083 0.004247447265904568 0.03645205838127977 0.005448459429591319 0.00848135755461646
0.005412486471710189 0.011421202855024059 -0.009734338375248211 0.010702821493137666 0.04232634429032323 0.01621999844673615 0.005180047911978207 0.020081881205275504
0.01040453734764236 0.043508313795239104 0.006084365244233558 0.028382004234408176 0.044080687774041505 0.021118586441646926 0.028096011552889658 0.04913762764309774
0.018731645502281312 0.004285054435481143 0.023323980428890057 0.04339558882326797 -0.006231053676300477 0.010534741231550149 0.03403089803365408 -0.008918889763072129
-0.0065865510778879265 -0.016759314736264807 0.004046559715454145 0.012041116600987936 0.0037559920129298075 0.017455714451302003 0.0220842468203937 0.010135717409219331
0.012264984051132674 0.020901353309613714 0.043434101038676634 0.03459200290189404 0.009258400516391567 0.0015646883291216165 0.02458757888004967 0.010205212444295144
0.01091388303271544 0.005666156528645035 0.0485313666162848 0.03562973103870218 0.03836023687331117 0.022682267054883264 0.0184931384768969 0.01208736552575491
-0.006038314226599142 -0.027260076840126986 -0.01065687184233261 -0.015421430423652549 -0.02308270296640091 -0.0753366581013372 -0.06920602275840747 -0.04049862861997146
-0.035234037148834454 -0.022940751485710977 0.011582565551531785 0.0034522272048917745 0.014566494881825669 0.03592451029114719 0.03805644873089915 0.041923936117538446
0.019340289709672165 0.04263218022100357 0.03667224955599353 0.04268789235394535 0.009015915221310197 0.03216917048949281 0.041971418598555854 0.004961623370793683
0.04348816986645597 0.025713164535706996 0.0042811186254950295 0.007142595290053051 -0.021686017211834118 -0.003969074475057229 -0.008217039261096348 -0.042352184560631986
-0.06478440156231968 -0.08638834564021645 -0.10837839187824924 -0.10474448698519358 -0.11452482955286807 -0.10159102371479105 -0.04973094164200462 -0.047866828565067854
0.012129660065905977 0.05199908168285708 0.0350391947662029 0.04836249119973616 0.03399685514136179 0.030588563106439436 0.030706489694870987 0.013037282484454816
0.025919527640003198 0.008461951867102793 0.01737361260704373 0.04097644867612286 -0.013091317380535457 -0.025133480308872008 0.019677792596393684 -0.02631348682880705
0.03216363592325377 -0.003595507420653609 0.0434512402647465 0.011470480158046466 -0.008846554773734479 0.011480387508498013 -0.030634735486542213 0.001373816692091729
0.013259506562344864 -0.009644047025842485 -0.011666574182651743 0.004173632109028544 -0.013138108473671266 0.029689454860440393 0.05806092463081095 0.0825424251718106
0.07516838941807374 0.05324128193948266 0.03614771999796292 0.02500594874312357 0.03663815775265674 0.021209849827538308 0.04072136992078131 0.037099189005687525
-0.010498247866538822 -0.01649871271356611 0.008039913277000967 0.057798462925530515 0.0595977605195155 0.05955050281211127 0.08942747401795942 0.1082303195089101
0.1261820402472673 0.11455340623155176 0.08154042324722859 0.10884008495221108 0.15703567805863097 0.11625782759967918 0.07674640466875098 0.054640842402673875
0.039474687685554746 0.04645128740596441 0.05773283142305543 0.08134024928932194 0.0617504689136469 0.03580210008766131 0.03793626583497074 0.020571482723592223
0.018189290426303902 0.015168892887037023 0.004611119918509325 0.04477528025283132 -0.0004931102586553188 0.004267304789439619 0.039823012758636006 0.04595757777405674
0.1028307326995076 0.12350175616895459 0.14348554301289917 0.16147821246230806 0.15258222274643216 0.10882230462400645 0.11624130242402217 0.10270557771437286
0.13758586390283029 0.1254248347881717 0.07604972303651317 0.06525525068164595 0.05424196298989098 0.0409744109051036 0.06731087398938118 0.10446304966923675
0.06943915041497215 0.04198162794329907 0.02250543586414586 0.04566409307298554 0.022061899598640765 0.009943720513114943 0.008793493502523732 0.04174240588991281

b1 f8 [10, 1]
00000000: 27ea 2fa1 5f20 c63f 27ea 2fa1 5f20 c63f
00000010: 27ea 2fa1 5f20 c63f 27ea 2fa1 5f20 c63f
00000020: 27ea 2fa1 5f20 c63f 27ea 2fa1 5f20 c63f
00000030: 27ea 2fa1 5f20 c63f 27ea 2fa1 5f20 c63f
00000040: 27ea 2fa1 5f20 c63f 27ea 2fa1 5f20 c63f
0.17286296244113084 0.17286296244113084 0.17286296244113084 0.17286296244113084 0.17286296244113084 0.17286296244113084 0.17286296244113084 0.17286296244113084
0.17286296244113084 0.17286296244113084

W2 f8 [10, 10]
00000000: 11f2 2c55 9d40 b23f 1f67 3a71 c17e e03f
00000010: b643 4f08 f59c e93f 46da 1307 36e7 dabf
00000020: 1e3b c221 46f0 e73f 0030 c471 3390 ed3f
00000030: 65d6 81d4 a92e dbbf 897c abb0 b845 dbbf
00000040: c13f fe47 4c89 d3bf e7ad 2b51 4f19 df3f
00000050: 789e 97bb 984b dabf f099 a9ba fdf0 d1bf
00000060: f7d4 341f 731c b33f c8be 98e4 f1f8 a63f
00000070: 68c7 05e5 b4bb d9bf d982 4417 2a38 d7bf
00000080: 1488 ca7b af7a f53f 7129 a730 3fb2 a93f
00000090: bacc 78cb 664e e63f 8928 8600 7dee e03f
000000a0: eaa9 1eee 8571 d93f f870 939c b14b eb3f
000000b0: 6c6d 2aaf 1c79 ca3f b3f0 2942 978f e63f
000000c0: f1df dc39 23ed d6bf 645e d153 8bb4 e83f
000000d0: 8c9d 92dc 0d49 e83f be7d cc0e 0da2 dcbf
000000e0: cff4 43d2 fac6 cebf 31dc 2c7c 6484 c23f
000000f0: 7d78 dcb0 2342 d2bf a6b1 e694 e9e7 c7bf
00000100: 2021 cfb4 ffc1 d83f 3305 a4ae 376b de3f
00000110: 3838 653e d9e9 c33f 58f3 80dd 794d f13f
00000120: 3c76 db5e 147f c73f ed0c 96b0 d94c d43f
00000130: 3533 9e94 0a16 e93f a124 9e9e db3c e0bf
00000140: d011 3165 a056 d83f 1141 beb2 518e e13f
00000150: 9c7d 7470 5165 babf c277 dae6 ce49 de3f
00000160: dd2e d414 827a e43f a683 0616 51ce ebbf
00000170: 7098 9614 661a e3bf 9d61 ab2d 9d72 d43f
00000180: 3dc2 f90d 9426 e73f 903a c4ef dbd1 dd3f
00000190: dd10 2b9f c53e e53f 8137 c32c 7d57 b33f
000001a0: 9d8f 99a9 66a6 f53f 4382 d33b 7ec1 d7bf
000001b0: 3275 6a24 2a17 dd3f 1c82 67dd 6f7a bebf
000001c0: ecd5 7a69 1353 d63f 08d5 8fef 7e55 da3f
000001d0: 92b4 181e ebfd ba3f 2e4b 4529 400e d5bf
000001e0: efb0 45f5 88e2 bebf 521d f269 ff6b c93f
000001f0: 32ed 54f5 daef e33f a393 4037 034e f23f
00000200: d610 2b6c 1033 e03f a05e 18e5 b258 e0bf
00000210: 7417 c0a3 6a1e ab3f d74d 1383 e744 c33f
00000220: 33ea 9b68 bb1f e4bf 59da e64a ce22 e33f
00000230: 152c 3a8f 09e5 f23f e482 5ca5 0599 e3bf
00000240: d1ed 97b0 2d42 e5bf 1312 8e10 d47a 9abf
00000250: 2366 fa80 f3a8 e53f 5b46 3d67 05de e53f
00000260: 4d34 4bee 08e5 d83f 4408 5dbc f471 c5bf
00000270: d154 6df3 6470 e23f de92 35a7 9587 ce3f
00000280: 42d0 7e34 e712 babf c7ed dbc4 abc1 ea3f
00000290: e338 9a73 92ec c23f 569d d5f0 ff0f dbbf
000002a0: dfc5 db01 ee67 d43f 329f 0d2d 51f8 c23f
000002b0: 9c9c a5ff fcd1 e23f 9c78 0e7f 78a4 e73f
000002c0: 2c3a fc51 d363 c93f 6662 0ae8 baad ce3f
000002d0: b842 f188 ee0a e73f 67bf 752e 99fe c73f
000002e0: 8456 8408 6e3b d8bf ea32 f3f8 6888 b6bf
000002f0: eb34 e729 c141 d4bf 4751 e8ca 0203 dc3f
00000300: d9f5 b496 75cb ddbf 7f6d b3e7 d06c ef3f
00000310: efeb a61f f500 d23f c365 b782 f3a2 e53f
0.0712984402607122 0.5154730998503715 0.8004098093316461 -0.42036200228850296 0.7480803164815801 0.9238526556014222 -0.4247231078401 -0.42613045933644195
-0.30525500326711713 0.48591978957003196 -0.41086405105168167 -0.2803339312435176 0.07465285789369945 0.044868048815599304 -0.4020817028568815 -0.3628030039999835
1.3424525104132998 0.050188040436824795 0.6970705007610356 0.5291123399959058 0.39755390409359725 0.8529899652599218 0.20682104638113274 0.7050281803381239
-0.35822373057044304 0.7720390927378955 0.758917742544257 -0.44739080853647895 -0.2404473807036198 0.1446652990650548 -0.28528682967760927 -0.18676490564884068
0.3868407502855167 0.475294037387431 0.15557399317407472 1.0814150478829188 0.1835656607790258 0.3171905731653187 0.7839405920691208 -0.5074289415362224
0.3802872646522504 0.5486229411199323 -0.10310849185451904 0.4732548956325183 0.6399546057523043 -0.8689351492104052 -0.5969725038637659 0.31949548206241635
0.723459269806035 0.46593378462504464 0.6639125927690902 0.0755537256511314 1.3531252503389404 -0.37118488161471336 0.45453885608897615 -0.11905573993090751
0.3488205461574967 0.41146825213157046 0.10543698773172341 -0.32899478941287696 -0.12064414966670588 0.19860832856304939 0.6230292121539718 1.1440460356036304
0.506233416811052 -0.5108274912372117 0.052966434945161206 0.15054029369512875 -0.6288735430856093 0.597998758595007 1.1809173197568772 -0.6124294500078489
-0.6643284272280942 -0.025859178076205035 0.6768739241699148 0.6833521858590744 0.3889791800582472 -0.16754016110832215 0.5762200121340816 0.23851271309390304
-0.1018509390985978 0.8361414761451947 0.14784460682535103 -0.42285154837596417 0.318843366446428 0.14820303630698956 0.5881333344558644 0.7388269883702097
0.19835893157183315 0.23967682199578916 0.7200844454437947 0.18745722549965224 -0.37862730819447443 -0.08801895215874436 -0.3165133389673673 0.4376837712782344
-0.46554317204922097 0.9820332074554442 0.281308442030137 0.6761415055327052

b2 f8 [10, 1]
00000000: d1ea 2bf4 9fbd 63bc d1ea 2bf4 9fbd 63bc
00000010: d1ea 2bf4 9fbd 63bc d1ea 2bf4 9fbd 63bc
00000020: d1ea 2bf4 9fbd 63bc d1ea 2bf4 9fbd 63bc
00000030: d1ea 2bf4 9fbd 63bc d1ea 2bf4 9fbd 63bc
00000040: d1ea 2bf4 9fbd 63bc d1ea 2bf4 9fbd 63bc
-8.561173450377807e-18 -8.561173450377807e-18 -8.561173450377807e-18 -8.561173450377807e-18 -8.561173450377807e-18 -8.561173450377807e-18 -8.561173450377807e-18 -8.561173450377807e-18
-8.561173450377807e-18 -8.561173450377807e-18
