models/random_search_params.npz (npz, 815126 bytes, 4 tensors)

W1 f8 [128, 784]
0	0x000000000264e2c7	1.98446837e-316
1	0x80000000032eeaa0	-2.63862517e-316
2	0x80000000038ee2ed	-2.949367e-316
3	0x0000000002e19e21	2.3883387e-316
4	0x8000000001a12553	-1.35067997e-316
5	0x00000000024835f4	1.89162104e-316
6	0x8000000002b21159	-2.23437636e-316
7	0x8000000003e6328c	-3.2320721e-316
8	0x0000000000215211	1.0788897e-317
9	0x8000000004b78ec0	-3.9099612e-316
10	0x0000000004ac3324	3.87318554e-316
11	0x000000000305a2df	2.50496337e-316
12	0x38f6a425be574bf0	2.725335426843267e-34
13	0xb945822b784a985c	-8.284763519443456e-33
14	0xb945822b784a985c	-8.284763519443456e-33
15	0x3902d3803950c96e	4.532236841468558e-34
16	0x800000000547eca2	-4.3774075e-316
17	0x00000000059a1124	4.64337775e-316
18	0x80000000022ee95d	-1.8097046e-316
19	0x00000000030cab0a	2.52773204e-316
20	0x000000000231d1ef	1.819122e-316
21	0x800000000037ddb0	-1.808889e-317
22	0x800000000263890e	-1.98009564e-316
23	0x00000000018dc839	1.28798215e-316
24	0x0000000000f9bead	8.0865093e-317
25	0x80000000075e68fe	-6.1080236e-316
26	0x8000000006e8672a	-5.72592726e-316
27	0x000000000472eb75	3.6877181e-316
28	0x8000000000541e22	-2.7236545e-317
29	0x8000000003656606	-2.815033e-316
30	0x8000000002b3fab3	-2.2405657e-316
31	0x80000000027dffca	-2.06578303e-316
32	0xbb9364dc2476b571	-1.0267089698222043e-21
33	0x3cb7c06fa5df6ca8	3.29621102806604e-16
34	0xbd052578594933f1	-9.390873690471208e-15
35	0x3e0ab9c4cda79ca9	7.778190550928012e-10
36	0x3e87b521f661aa86	1.7663500812293097e-07
37	0xbe85f9ce4b62a162	-1.6373249928548495e-07
38	0x3f3e5458012c2c6f	0.0004627909521992051
39	0x3f65806a1c643012	0.0026247093657101395
40	0xbf5935cc1ba7a031	-0.0015387051813551373
41	0x3f83d184f6a911a9	0.009676970269659817
42	0xbf721c1fb22b1a64	-0.004421352207549665
43	0xbf89cda54e413f64	-0.012599269343041626
44	0xbf7b5078ad2e16ea	-0.006668540375249535
45	0x3f42feefc8572e79	0.0005797072232609078
46	0x3f58aeed18c3b2e3	0.001506549396306394
47	0xbea1e466b26f3a2d	-5.332288751604634e-07
48	0x3f1c13e7f06bd790	0.0001071081461353192
49	0x3f48f1dda878522a	0.0007612545313713849
50	0x3f35dff8b45240d5	0.00033378431209830684
51	0x3ec91ee02ea62632	2.994609862476383e-06
52	0x0000000003d80af3	3.18624057e-316
53	0x8000000004f51318	-4.10914753e-316
54	0x8000000002869518	-2.0935747e-316
55	0x800000000148697e	-1.0633683e-316
56	0x8000000000075df1	-2.385354e-318
57	0x000000000297c373	2.14920547e-316
58	0x0000000001e349f2	1.56484513e-316
59	0x3ecd79cea89f7bd8	3.513790322692383e-06
60	0xbed53f5689c54262	-5.065778307348185e-06
61	0x3e0b5453d00931be	7.953903369896293e-10
62	0xbf42dded8dc05a8b	-0.0005757722788100756
63	0xbf3d8f16fd24d2d1	-0.00045103369952252415
64	0x3f33d23d2a368fc5	0.00030244820865221413
65	0x3f411504de3b29e6	0.0005213044900867464
66	0x3f60ba7f9c6e03f7	0.0020420544055359496
67	0x3f6271e46b55ead4	0.002251573687940359
68	0x3f58824638ea668c	0.001495903564921272
69	0x3f591b4716c7820d	0.001532382414659253
70	0xbf8c30bb5e86a373	-0.01376482374401331
71	0xbf956db89d1ec150	-0.020926365461208463
72	0xbf94563b5421cea4	-0.01986019803048457
73	0x3f78b917b5815169	0.006035893071459555
74	0x3f7ca1fcebb99dd5	0.0069904212683477756
75	0xbf76bd45230b5678	-0.005551595750792886
76	0x3f8ab6caf0c3a16c	0.013043961975612382
77	0x3f89863c00d386a7	0.01246306302568041
78	0x3f97607af7891480	0.022828980787626296
79	0x3f98259565d0693d	0.023580869998206955
80	0x3f876c8f9fda3758	0.011437532487686461
81	0xbf29a78a8937bc28	-0.00019572797883379953
82	0x00000000014cb3ba	1.07725886e-316
83	0x0000000000572d5c	2.8227176e-317
84	0x00000000002929db	1.3328364e-317
85	0x0000000004e1d0e8	4.04679013e-316
86	0x3e43f0752e07996c	9.284954528279287e-09
87	0xbef3389bf4c841ce	-1.8330697729553214e-05
88	0x3f3dbabf3a999300	0.0004536358706899585
89	0xbf60e8764a4b0f6a	-0.002063971553384937
90	0xbf7411f32a6d0f86	-0.004899930826301252
91	0xbf63fd32f4fe7d2d	-0.0024400706533495215
92	0xbf665d5bf1908dd8	-0.0027300639890357296
93	0xbf7b1de5b28516ae	-0.00662030911946025
94	0xbf91e2d4da8ef503	-0.0174668558499791
95	0xbf9a790247b12dc7	-0.025852237344492737
96	0xbfb554a4798d1660	-0.08332279174381929
97	0xbfabdea020a97411	-0.05443287275986831
98	0xbf98f9f1bc032abf	-0.02439096174274868
99	0xbf961ff1855be575	-0.021606229557595797
100	0xbf5bb11eaf56456c	-0.0016901778848004935
101	0x3f8f6a84c8160172	0.015339887004984763
102	0xbfa1381fce20c66b	-0.03363131896220469
103	0xbf90c6e4cb095bed	-0.016383719341629122
104	0x3f7e441348b3a647	0.007389140441981085
105	0x3f94272fa9857fdc	0.01968073341538444
106	0x3fa686e077724c2e	0.04399777849280216
107	0x3fb4c3a31b9cc87e	0.08111018585330673
108	0x3faeabf8ab28afcd	0.05990578736631811
109	0xbf427545966379f5	-0.0005632962973114985
110	0xbedb7a42793bef67	-6.5511648192870345e-06
111	0x800000000576d3f3	-4.529277e-316
112	0x800000000028e839	-1.324535e-317
113	0x800000000198b3b8	-1.3233398e-316
114	0xbe4097b08ee50c0c	-7.72650251819926e-09
115	0xbed5d759f817aaa8	-5.2073518203947026e-06
116	0x3f17c538a6df9e87	9.067686343621806e-05
117	0xbf45cdb002d3c950	-0.0006653890065122878
118	0x3f898ee0313903e9	0.012479545118482665
119	0x3f3f4967427eb96e	0.00047739764203926546
120	0xbf94a5985a5e7aea	-0.020162945285501367
121	0xbfa7bcf9fb24da0a	-0.046363651187153535
122	0xbfb0901c158ea0ea	-0.06469893957421716
123	0x3f94ae50f03dfc14	0.02019621340104656
124	0xbec66a72ec80f358	-2.6721735118237655e-06
125	0xbfa764cda8060bc7	-0.04569094348973795
126	0xbf993765f42b7137	-0.02462539007943684
127	0xbf67636d91fb8478	-0.0028550281566457857
128	0xbfac5f9a136b9706	-0.05541688429893381
129	0x3fac87336db4aa56	0.0557190009515877
130	0x3fafb4f5dd18351e	0.0619274933234044
131	0x3fb8f4a0c479fb39	0.0974827270201616
132	0x3fa441ce310c3f88	0.03956455563286371
133	0xbf5186238de93817	-0.0010695788584089755
134	0x3fbe0d4f0749c304	0.11739057472165021
135	0x3f91ec8e67297820	0.017503953024395114
136	0xbf7cbf434f2d33af	-0.007018340041054324
137	0xbf99d0f7701b3aa3	-0.025211206643514072
138	0xbf8ee2871dc6aa92	-0.015080504985993035
139	0x8000000000a558f8	-5.353802e-317
140	0x0000000001fd9af3	1.6500553e-316
141	0x0000000002a67dd5	2.1968936e-316
142	0xbf2553dc34be036e	-0.00016271651326962448
143	0xbf47dc3160ac9083	-0.0007281533338283772
144	0x3f7051d994fff440	0.0039843081758564325
145	0x3f91362c60b90afc	0.016808217433445613
146	0x3fac6f2cd67fc553	0.05553569906613611
147	0x3f6efd9952f89b24	0.0037830347644275553
148	0xbf92f86fc47d9c05	-0.01852583538802934
149	0xbfb2a577e1c06ae1	-0.07283734570993829
150	0xbfaa6d3a803c81f1	-0.051614597467281594
151	0x3fa2e3347276f6c3	0.03688968560480312
152	0x3fa2f133b3331f7a	0.03699647486206366
153	0xbfa9d5e6e95c28f3	-0.0504600677359849
154	0xbfa024577531881f	-0.0315272646482898
155	0x3f6ae713c9241c24	0.0032840143622965435
156	0xbfb3da7e16b39261	-0.07755268148646045
157	0xbf9ea740c8ca7bea	-0.029934894805247504
158	0x3f9b23e124103fa6	0.026504056764735794
159	0x3f8e7a61820bec9d	0.014881860524374619
160	0xbf70da3f850d7e66	-0.0041143876304371215
161	0x3fa56e249af1dfa3	0.04185594931999439
162	0x3fa3428fbb29299f	0.0376171985595477
163	0xbfb3e947a3969d54	-0.07777831786971962
164	0xbf987e5478532aaf	-0.02391941055683827
165	0xbf9b7c05f4f7eb78	-0.026840298725783168
166	0xbf669737cb1dbcec	-0.0027576532092364794
167	0x39869868b4a1a20e	1.3925458144568525e-31
168	0x0000000004fb7cb5	4.1299108e-316
169	0x20199d2e68ceff0c	4.7759465110201406e-154
170	0xbef314fd9772d541	-1.8198008061095066e-05
171	0xbf61d163a2b0dd54	-0.0021750398641661537
172	0xbeddbc322f16e557	-7.089410006094524e-06
173	0x3fa8e13caa7b2491	0.0485934217554781
174	0x3faa463bde57909e	0.05131709183822973
175	0xbf9f7587be3b237f	-0.03072177980974144
176	0xbfbf8a0b44d75b3e	-0.12320013457006682
177	0xbfb9639fd379efcb	-0.09917639649387337
178	0x3fa0d532231399d0	0.032876555234725324
179	0x3f7efe5f7a9d449f	0.007566807713218853
180	0xbf805add811b1ccd	-0.007985811712741509
181	0xbfb16538dac036ef	-0.06795077648731838
182	0x3f9fa7cc405564e4	0.03091353552494959
183	0xbfa33db052631154	-0.03758002286625364
184	0xbfa87ebc4a4423c8	-0.04784191519326658
185	0x3fa45fda9532925c	0.039793806755629574
186	0x3fa68120eeec5f3a	0.04395392338318378
187	0x3fc26abcf59ace76	0.1438823889962923
188	0x3f823a48af156745	0.008900230258109718
189	0xbf9b54a16c59c32c	-0.026690027464101693
190	0x3fad9120034f75d3	0.05774784126672796
191	0x3fa2360fa22b28e8	0.03556870321843225
192	0xbfb92f500f40414a	-0.0983781850084188
193	0xbf9dfee7eddcb73a	-0.029292701619105112
194	0xbf833f49c22d077f	-0.009398056257513108
195	0x3f4802d65de6fb75	0.0007327601159018276
196	0x8000000002037bf3	-1.66909066e-316
197	0x3ec928ab4be02038	2.999170276577641e-06
198	0xbf4d11f3dfac25c0	-0.0008871498860979973
199	0xbf6913295338fe23	-0.0030608946924812904
200	0xbf9042f41746bd47	-0.01588040725772302
201	0x3fa733082440c9a7	0.045311216760086474
202	0xbf9254b4f8a690c6	-0.017901256252699914
203	0xbfbbd60efef3aee5	-0.1087350246850139
204	0xbfc413f9601fde86	-0.15685956185892652
205	0xbf7627938a4e961c	-0.005408836678645137
206	0x3f9dc5b718e467a9	0.029074536222743728
207	0xbfa9e0fa027cdeac	-0.050544560245211784
208	0xbfa9ac6b0260eb84	-0.05014356998477523
209	0x3fa17ff3b987e267	0.03417932166843656
210	0x3fa2d21751942af7	0.036759117801997414
211	0xbf827d67ee90f957	-0.009028255432096328
212	0x3fbbacf258b3f3c8	0.10810770669554792
213	0x3fb6a00143229a28	0.0883789814857684
214	0x3fbf26b913a85135	0.12168461542052429
215	0x3fb4b58caddd1a32	0.0808952259513738
216	0x3fb9a76d7c5974ae	0.10021099363207739
217	0x3f98b8142bec712d	0.024139704876789004
218	0x3fa1797dfd1fc741	0.03413003649610725
219	0x3fb906f28fd12c75	0.09776226054343502
220	0xbfbb15bb9c94264e	-0.10580036709520721
221	0xbfb80dd03506051f	-0.09396077436942506
222	0xbfaa8574e0a11762	-0.05179944269234117
223	0x3f55cf85da3df035	0.0013312155869860235
224	0x80000000053d04d3	-4.34209647e-316
225	0xbee0d40e25df0bb7	-8.024378242659864e-06
226	0xbf6ab56c212c0a2a	-0.0032603370576691675
227	0xbf81d5ced7683a7c	-0.00870858759756498
228	0xbf943294d9eeba95	-0.01972420292048101
229	0xbf81422ccd229cb5	-0.008427000055532078
230	0xbfa3dcc5a05d8474	-0.038793731523363656
231	0xbfb012885d672495	-0.06278278618187223
232	0x3f6b3054ca002abf	0.0033189445530344692
233	0x3f24b1d0748dbd38	0.00015788716907703406
234	0xbfb26c4f8df86cb2	-0.07196519104074886
235	0xbfc1b1d045fcf2af	-0.1382389394510901
236	0xbfc14427525c44ab	-0.13489238282685298
237	0xbfa8176ea15df671	-0.04705377311527748
238	0xbf9cb962b3b86de1	-0.028050939769043274
239	0x3fb17f97c256d768	0.06835316176042527
240	0x3fc1a125d1423f20	0.13773033826554926
241	0x3fb7903c1391ac3e	0.09204459645995741
242	0x3f9c8ea29067ec34	0.027887859405364604
243	0x3fafac3331fe9d51	0.06186065659795282
244	0x3fb260311cde04bc	0.07178027109877666
245	0x3fa6cbc8e7605e92	0.04452350449008437
246	0xbfa50c4b21b09150	-0.04110941683055336
247	0x3fa16e3a59b729fc	0.03404409737739297
248	0xbfc3dcc35e955936	-0.1551746570427867
249	0xbfc144f9ae5c3e5e	-0.1349174596184523
250	0xbf905eda5a3d58be	-0.015986835248747104
251	0x3f0ed6a2ef448302	5.8819625254230234e-05
252	0x0000000001eaba6a	1.588933e-316
253	0x3ea17180db9cc485	5.198530097281194e-07
254	0xbf55d5821e1fd56e	-0.0013326426201250813
255	0xbf90a1398436dee0	-0.016240023321841046

b1 f8 [128, 1]
0	0xbf899687fee722c5	-0.012494146791952496
1	0xbf899687fee722c5	-0.012494146791952496
2	0xbf899687fee722c5	-0.012494146791952496
3	0xbf899687fee722c5	-0.012494146791952496
4	0xbf899687fee722c5	-0.012494146791952496
5	0xbf899687fee722c5	-0.012494146791952496
6	0xbf899687fee722c5	-0.012494146791952496
7	0xbf899687fee722c5	-0.012494146791952496
8	0xbf899687fee722c5	-0.012494146791952496
9	0xbf899687fee722c5	-0.012494146791952496
10	0xbf899687fee722c5	-0.012494146791952496
11	0xbf899687fee722c5	-0.012494146791952496
12	0xbf899687fee722c5	-0.012494146791952496
13	0xbf899687fee722c5	-0.012494146791952496
14	0xbf899687fee722c5	-0.012494146791952496
15	0xbf899687fee722c5	-0.012494146791952496
16	0xbf899687fee722c5	-0.012494146791952496
17	0xbf899687fee722c5	-0.012494146791952496
18	0xbf899687fee722c5	-0.012494146791952496
19	0xbf899687fee722c5	-0.012494146791952496
20	0xbf899687fee722c5	-0.012494146791952496
21	0xbf899687fee722c5	-0.012494146791952496
22	0xbf899687fee722c5	-0.012494146791952496
23	0xbf899687fee722c5	-0.012494146791952496
24	0xbf899687fee722c5	-0.012494146791952496
25	0xbf899687fee722c5	-0.012494146791952496
26	0xbf899687fee722c5	-0.012494146791952496
27	0xbf899687fee722c5	-0.012494146791952496
28	0xbf899687fee722c5	-0.012494146791952496
29	0xbf899687fee722c5	-0.012494146791952496
30	0xbf899687fee722c5	-0.012494146791952496
31	0xbf899687fee722c5	-0.012494146791952496
32	0xbf899687fee722c5	-0.012494146791952496
33	0xbf899687fee722c5	-0.012494146791952496
34	0xbf899687fee722c5	-0.012494146791952496
35	0xbf899687fee722c5	-0.012494146791952496
36	0xbf899687fee722c5	-0.012494146791952496
37	0xbf899687fee722c5	-0.012494146791952496
38	0xbf899687fee722c5	-0.012494146791952496
39	0xbf899687fee722c5	-0.012494146791952496
40	0xbf899687fee722c5	-0.012494146791952496
41	0xbf899687fee722c5	-0.012494146791952496
42	0xbf899687fee722c5	-0.012494146791952496
43	0xbf899687fee722c5	-0.012494146791952496
44	0xbf899687fee722c5	-0.012494146791952496
45	0xbf899687fee722c5	-0.012494146791952496
46	0xbf899687fee722c5	-0.012494146791952496
47	0xbf899687fee722c5	-0.012494146791952496
48	0xbf899687fee722c5	-0.012494146791952496
49	0xbf899687fee722c5	-0.012494146791952496
50	0xbf899687fee722c5	-0.012494146791952496
51	0xbf899687fee722c5	-0.012494146791952496
52	0xbf899687fee722c5	-0.012494146791952496
53	0xbf899687fee722c5	-0.012494146791952496
54	0xbf899687fee722c5	-0.012494146791952496
55	0xbf899687fee722c5	-0.012494146791952496
56	0xbf899687fee722c5	-0.012494146791952496
57	0xbf899687fee722c5	-0.012494146791952496
58	0xbf899687fee722c5	-0.012494146791952496
59	0xbf899687fee722c5	-0.012494146791952496
60	0xbf899687fee722c5	-0.012494146791952496
61	0xbf899687fee722c5	-0.012494146791952496
62	0xbf899687fee722c5	-0.012494146791952496
63	0xbf899687fee722c5	-0.012494146791952496
64	0xbf899687fee722c5	-0.012494146791952496
65	0xbf899687fee722c5	-0.012494146791952496
66	0xbf899687fee722c5	-0.012494146791952496
67	0xbf899687fee722c5	-0.012494146791952496
68	0xbf899687fee722c5	-0.012494146791952496
69	0xbf899687fee722c5	-0.012494146791952496
70	0xbf899687fee722c5	-0.012494146791952496
71	0xbf899687fee722c5	-0.012494146791952496
72	0xbf899687fee722c5	-0.012494146791952496
73	0xbf899687fee722c5	-0.012494146791952496
74	0xbf899687fee722c5	-0.012494146791952496
75	0xbf899687fee722c5	-0.012494146791952496
76	0xbf899687fee722c5	-0.012494146791952496
77	0xbf899687fee722c5	-0.012494146791952496
78	0xbf899687fee722c5	-0.012494146791952496
79	0xbf899687fee722c5	-0.012494146791952496
80	0xbf899687fee722c5	-0.012494146791952496
81	0xbf899687fee722c5	-0.012494146791952496
82	0xbf899687fee722c5	-0.012494146791952496
83	0xbf899687fee722c5	-0.012494146791952496
84	0xbf899687fee722c5	-0.012494146791952496
85	0xbf899687fee722c5	-0.012494146791952496
86	0xbf899687fee722c5	-0.012494146791952496
87	0xbf899687fee722c5	-0.012494146791952496
88	0xbf899687fee722c5	-0.012494146791952496
89	0xbf899687fee722c5	-0.012494146791952496
90	0xbf899687fee722c5	-0.012494146791952496
91	0xbf899687fee722c5	-0.012494146791952496
92	0xbf899687fee722c5	-0.012494146791952496
93	0xbf899687fee722c5	-0.012494146791952496
94	0xbf899687fee722c5	-0.012494146791952496
95	0xbf899687fee722c5	-0.012494146791952496
96	0xbf899687fee722c5	-0.012494146791952496
97	0xbf899687fee722c5	-0.012494146791952496
98	0xbf899687fee722c5	-0.012494146791952496
99	0xbf899687fee722c5	-0.012494146791952496
100	0xbf899687fee722c5	-0.012494146791952496
101	0xbf899687fee722c5	-0.012494146791952496
102	0xbf899687fee722c5	-0.012494146791952496
103	0xbf899687fee722c5	-0.012494146791952496
104	0xbf899687fee722c5	-0.012494146791952496
105	0xbf899687fee722c5	-0.012494146791952496
106	0xbf899687fee722c5	-0.012494146791952496
107	0xbf899687fee722c5	-0.012494146791952496
108	0xbf899687fee722c5	-0.012494146791952496
109	0xbf899687fee722c5	-0.012494146791952496
110	0xbf899687fee722c5	-0.012494146791952496
111	0xbf899687fee722c5	-0.012494146791952496
112	0xbf899687fee722c5	-0.012494146791952496
113	0xbf899687fee722c5	-0.012494146791952496
114	0xbf899687fee722c5	-0.012494146791952496
115	0xbf899687fee722c5	-0.012494146791952496
116	0xbf899687fee722c5	-0.012494146791952496
117	0xbf899687fee722c5	-0.012494146791952496
118	0xbf899687fee722c5	-0.012494146791952496
119	0xbf899687fee722c5	-0.012494146791952496
120	0xbf899687fee722c5	-0.012494146791952496
121	0xbf899687fee722c5	-0.012494146791952496
122	0xbf899687fee722c5	-0.012494146791952496
123	0xbf899687fee722c5	-0.012494146791952496
124	0xbf899687fee722c5	-0.012494146791952496
125	0xbf899687fee722c5	-0.012494146791952496
126	0xbf899687fee722c5	-0.012494146791952496
127	0xbf899687fee722c5	-0.012494146791952496

W2 f8 [10, 128]
0	0x3fd8958948382823	0.3841269688861095
1	0xbfdf12f5f2799fa4	-0.485532271186907
2	0x3fd9302521eff8c0	0.3935635405940836
3	0xbfe1f01bc28ff7cc	-0.5605601120039352
4	0x3fcc1e263b0be28c	0.21967008479238748
5	0x3fd6247cb6f87d4f	0.34597699993351666
6	0x3fdb343c099da961	0.42506314219521896
7	0xbfe0c408eb9a0d9b	-0.5239300347897599
8	0xbfd26933a42cdeaa	-0.28767100365392173
9	0xbfc37d5a12246b87	-0.1522629345498354
10	0x3fd321a8013afd7e	0.29892921562346675
11	0x3fc59f1ee27aba5f	0.1689184766632534
12	0x3fd092fcd2d0abcc	0.25897141063131524
13	0xbfe7db2529536910	-0.7455011183876952
14	0x3fd1783347761d7b	0.2729614446511374
15	0x3fc63ce7367a764b	0.17373361740185297
16	0xbfe0108a800ba13f	-0.5020191670310296
17	0x3fd1d2cebf6a3b90	0.27849167530887886
18	0x3fd7fbf18eecb739	0.3747524162052858
19	0x3fc3866d3529698b	0.15253987403668776
20	0x3fd4983fcc247b2f	0.3217925542430064
21	0xbfe20c5ee365986b	-0.5640100900025237
22	0x3fca445dd9bd9972	0.20521138316980686
23	0xbfcd260d4f889dad	-0.22772375472525877
24	0xbfd06d060273b653	-0.2566542648263283
25	0xbfced63b3e2eeb77	-0.2409128240231799
26	0xbfb73d311f85e850	-0.09077746409994458
27	0xbfa8cce68e83445d	-0.04843826760919321
28	0xbfecd2dea5956e93	-0.9007409318978311
29	0xbfdcc32d2297cce4	-0.4494126165220236
30	0xbfc3692882ae8b0b	-0.1516466749281665
31	0x3fc762fe708c1023	0.18270855422463325
32	0xbfcd6f524d16a0a9	-0.2299597622306966
33	0x3fc2d35bbf264839	0.14707514604066477
34	0x3f9425ba682e6819	0.019675171478958562
35	0xbfa85f3ddb06d97c	-0.047601635920204693
36	0xbfd36f2d9358df86	-0.30366076840754663
37	0xbfc5eb97b92e33ff	-0.1712522176934783
38	0xbf9e817f90a6878a	-0.029790871814504828
39	0xbfe83c2736554435	-0.7573429166024029
40	0xbfd3e91da1c667f2	-0.3111032562097754
41	0xbfb30a2a82c51742	-0.07437387173294233
42	0x3fb4d5e15a163583	0.08138855409034389
43	0x3fcbaf563c3d7657	0.21628835622225281
44	0xbfd89c8063baba9a	-0.3845520948333757
45	0x3fd1675277d8fc51	0.27193128303401176
46	0xbfbe976708cb9117	-0.1194977184746374
47	0xbfd4d406d241bb32	-0.3254410794533441
48	0xbfd5ca948f336a45	-0.3404895208783823
49	0xbfb0d0e2b64b3a66	-0.06568734121831596
50	0x3fdb5b69de8bd77a	0.4274544404319084
51	0xbfbd4b6abe3e49b3	-0.11443202156650649
52	0xbfe5c3e74bd205d5	-0.680164001547548
53	0x3fd787951a528078	0.367650294976563
54	0x3fd34a0f6e9180d8	0.30139528081600764
55	0xbf91b7763117339d	-0.01730141329408107
56	0xbfbe1ce00a2c1637	-0.11762809990258281
57	0xbfccdefda28798b4	-0.22555513797778348
58	0x3fe14e1a8a1354e5	0.5407841393267999
59	0x3fa68c0009c73e3c	0.04403686637271817
60	0x3fd557b8d2f27459	0.3334791240720896
61	0x3fd334750d74f8b1	0.300076735631488
62	0x3fd0d278594acb18	0.2628460762017979
63	0x3fb2e72033035978	0.07383919949947948
64	0xbfd802b13ffbb901	-0.3751643299900849
65	0xbfc7c36e6ddf101f	-0.1856515919190551
66	0x3fd184e203db2f65	0.27373552681523555
67	0xbfd0b13f06d410c4	-0.2608182493861586
68	0x3fbb443ac0cd978e	0.1065098496161154
69	0xbfd708a77dead14d	-0.35990321442229317
70	0x3fdc95f201929ff6	0.44665193704213324
71	0xbfcadf4646ef0bb6	-0.20993879760325534
72	0x3fcee41890f878d5	0.24133593634264253
73	0x3fb6ed222044bfc6	0.08955586707884242
74	0x3fc7dc6bf52ef24a	0.1864142367538924
75	0xbfe3cc4bd266ad47	-0.6186884984394191
76	0xbf83d2e9de2196f2	-0.009679629413038768
77	0xbfe151b64a916665	-0.5412246185689581
78	0xbfd0b47c8c47a01d	-0.2610160226745409
79	0xbfdb8ea49ac7e1cc	-0.4305812369853157
80	0x3fe08c6f4c262e74	0.5171429145133986
81	0xbfe0a90170904d56	-0.5206305693158508
82	0xbfd97b9e4bba9f27	-0.3981700648823669
83	0xbfe389c92c20ce8a	-0.6105695592763862
84	0x3fc727321b047efe	0.1808836585923856
85	0x3fcbdf6cb3d56404	0.2177558782666723
86	0xbfd311ee224c51bd	-0.29796937322069167
87	0x3fddb67670db0062	0.46426163693468514
88	0x3fd3482cc44ad81c	0.3012802044789866
89	0x3fdc432eb3464e27	0.44160048968589866
90	0x3fc1fda93cb77c1a	0.14055362190899318
91	0xbfc4a7c22c217cbe	-0.1613695826990575
92	0xbfde76c0811b62d0	-0.47599804504492926
93	0xbfe30cbee21041ef	-0.5953058638861516
94	0xbfe6c25c295b2d7d	-0.7112255866754108
95	0xbfe04e9ab1d2b25d	-0.5095952485185752
96	0xbfca83b88a24ca0a	-0.20714480157182918
97	0x3fcb3f294cb71328	0.2128650307260156
98	0xbfe1e280214210a8	-0.5588989877292265
99	0x3fcc45147d85b571	0.22085815552729174
100	0x3fcc4c6320411d0f	0.2210811526767675
101	0xbfc8949101d15ff4	-0.19203388775599672
102	0x3fbef29a30f0d91a	0.12088931746334133
103	0x3fe0cd5f9126641a	0.5250699839554074
104	0xbfdb50c066c2f05d	-0.42680368457127377
105	0x3fc3b9a75872f794	0.1541032010917972
106	0xbfd6afe5a3d7e65b	-0.3544859027893829
107	0xbfd3945ae57c6686	-0.30592987452255505
108	0x3fd89ccaee1fd822	0.38456986669860005
109	0x3fd91664b8515939	0.3919917869547081
110	0x3fd3def98a38fe67	0.3104842996435537
111	0xbfeaa94162752b64	-0.8331610606195281
112	0x3fd5eac3087d245d	0.3424537260912695
113	0xbfda0e632191686f	-0.40712812688946703
114	0x3fd2d50f15bc0d22	0.29425408480183723
115	0x3fdc1836e7139f92	0.43897793356017545
116	0xbfcf431e68b016cd	-0.24423580276213955
117	0xbfc646ac411d3c9c	-0.17403176478771776
118	0x3fdf1f5c0f2eb02e	0.48628903849271665
119	0x3f9ef2bb44fc32e0	0.030222822270888794
120	0x3fe0695e2f6df08d	0.5128622938496094
121	0x3fbde391dbccf073	0.11675368896698206
122	0x3fd8bf34f99845f1	0.38667034506315107
123	0x3fd3392ba31b7952	0.3003644078106805
124	0xbfde451b1db13d73	-0.4729678907360359
125	0x3fd3092834099367	0.29743390161302447
126	0xbfdb0958c36b8846	-0.4224454792403133
127	0xbfe05b14d27b5636	-0.5111183272335384
128	0x3fe2190a08b2f5b7	0.5655565423873473
129	0x3fe293a6641cbac8	0.5805236773793121
130	0x3fc20e4d5579b241	0.14106146501161912
131	0xbfb594e377c0bbbc	-0.08430310891775056
132	0xbfee24f48ce944de	-0.9420111419841779
133	0xbfad51b4a11a8ed8	-0.05726398913000502
134	0xbfdc1827cb696d54	-0.43897433151660903
135	0xbfe2b1419da1fe43	-0.5841377333417274
136	0x3fe8d7d057f72460	0.7763444631647296
137	0xbfe19327b3fb5573	-0.5492132678288456
138	0x3fd0460f018f2699	0.2542760386682886
139	0xbfcb92d6b0aa6ecf	-0.21541865946061597
140	0xbfc2e4e654f2c030	-0.14761046550620582
141	0xbfb0c58b8c9db49b	-0.0655142992306587
142	0xbfb8e09733275bed	-0.09717698096152079
143	0x3fca5b8aedefc1e8	0.20591866128917435
144	0xbfd8f0e8f7009091	-0.3897039806490819
145	0x3fc5070c9bbe5bec	0.16427762608211027
146	0x3facaa363e8d47ab	0.05598611367771807
147	0xbfb2cb38295e8695	-0.07341338167182195
148	0xbfc48b07ead6f61a	-0.16049288718015547
149	0xbfd5d1ebfe4dba5c	-0.3409376128610455
150	0x3fd19486ab5fe9fd	0.27469031081969303
151	0xbfbc8a01f1c0a2f6	-0.11148082878265683
152	0xbfc13acc6e9de6b5	-0.13460688973628057
153	0x3fd89671331b9e45	0.38418226233486436
154	0x3fcd0b14f7c3a5e6	0.2269006929193857
155	0x3fcf16a8901b4111	0.24287898098419494
156	0x3fc5f0c2b643a561	0.17140993022557452
157	0x3fd84a107e6349db	0.3795205339676195
158	0x3fde3bcfbb92debf	0.4724006015562558
159	0x3fb5acc478f7b2c3	0.0846674723940835
160	0x3fe358eda7cc7446	0.6046055104558341
161	0x3fc85f8147b382af	0.19041458130870612
162	0xbfebdbc8a361c290	-0.8705790701915976
163	0xbfd1a3adb5cbfe3b	-0.2756151461944431
164	0x3fea76730656f474	0.8269591449567444
165	0xbfb2c9bc54b3b5dd	-0.073390741996
166	0x3f9974f7ddc6888c	0.024860260878661708
167	0xbfe5cb4782c8d901	-0.681064372480961
168	0xbfd5a4855f15699e	-0.33816656384956356
169	0x3fd8ba71c441fd50	0.3863796631412315
170	0x3fcbfc182da8a05a	0.21863081197193673
171	0xbfdfda59f405d00c	-0.49770211057989466
172	0x3f8db29a64c29d50	0.014500814628560704
173	0xbfb69698359c7590	-0.08823539074770381
174	0x3fd7f9ed3b7c9515	0.37462931451075693
175	0xbfd27b4f367a4af8	-0.28877621002281684
176	0x3fae8cf08710d3ef	0.05966903351546892
177	0x3fe3dac89eae29bf	0.6204569911217773
178	0xbfd8790d09fbe5be	-0.382388362646079
179	0x3fde3db33870aa61	0.4725158740208482
180	0x3fd62ef76ba8d2f7	0.346616606842232
181	0x3fda852e97db6c7c	0.41437878446385645
182	0x3fd8adc26b93444f	0.3856054354228648
183	0x3fd0a1a5bc01b03c	0.2598661743165882
184	0xbfcd4afa6c28beee	-0.22885065346917294
185	0x3fdca180c8e19957	0.44735736481961424
186	0xbfa54c9daf16b7e1	-0.041600158332002264
187	0xbfdbf8938ade9826	-0.4370468956134367
188	0xbfd7153570befeab	-0.36066947946890576
189	0x3fe7966b6c6df73a	0.7371117704167098
190	0x3fc1f5c1d3d7ce58	0.1403124126805888
191	0x3fbe1cd3b297385c	0.1176273642551861
192	0xbfe6aaf7f56ba445	-0.708370189034334
193	0xbfc60e405127b3b9	-0.17230991327906311
194	0xbfc3daa4a760f5d2	-0.15510996029654095
195	0xbfe1dccce39e88f0	-0.5582031675042156
196	0xbfd2934fc6d90528	-0.2902411882278835
197	0xbfb8896aef6e428f	-0.0958468279407134
198	0xbfe841aff7bb32c8	-0.7580184782505848
199	0x3fd56cd092f3da71	0.3347665247996821
200	0xbfe3ae4c014c6738	-0.615026476417575
201	0x3fc7422e0fae4446	0.1817071510854779
202	0xbfe2b62797870054	-0.5847356757658511
203	0x3fd74a0426b2193e	0.3638925912749932
204	0x3fd27f9f9208c836	0.28903950940287204
205	0xbfb0213e4ddb21c6	-0.06300725365429746
206	0x3fd1ecfa92c8cdf7	0.280089038223394
207	0x3fbd0abca05e98c0	0.11344508090278094
208	0x3fc7faf960b79471	0.18734662268176153
209	0x3fca443ed85e9139	0.20520768704330708
210	0xbfe38c0c283b8723	-0.6108456407348267
211	0x3fdbfad6347e8548	0.437184859527481
212	0xbfcde703834c7ede	-0.23361247931551693
213	0xbf69bfbf85dd209f	-0.003143190448927482
214	0xbfe548971150fd9e	-0.665111097165141
215	0xbfe25f71a7d455a2	-0.5741508748930537
216	0x3fcb6dcb3001c511	0.21428813785636483
217	0x3fc979bbaff6ee01	0.1990275010301588
218	0x3fd7266b7548ccaa	0.361719955955048
219	0x3f76053ebb29a615	0.005376095813156141
220	0x3fd3522b6bb01bbe	0.30189023510359536
221	0x3fd1e2603c9fc738	0.2794418899567179
222	0xbfd488ead94fee53	-0.3208567735852956
223	0x3fd90a7481fa2da1	0.39126312916843103
224	0xbfe60291d8f72a6e	-0.6878136861426591
225	0x3fcb0356297861b8	0.2110393240443622
226	0x3fd8eacac1067a1e	0.3893305668842987
227	0xbfee2c433b5d7be3	-0.9429031524158485
228	0x3fc207641c15ef90	0.1408505570542471
229	0x3fca94b729e50af4	0.20766343637122697
230	0x3fc55e36587f21b8	0.16693763085483027
231	0x3fd66046175cf03e	0.3496260860590644
232	0x3fc3286c219cc903	0.1496710933802846
233	0x3fcee520dc158461	0.24136744257251322
234	0x3fd4a7d8d93f9c87	0.3227445718352517
235	0x3fccb64024881224	0.22431184562459905
236	0xbfb3ea54555dd92c	-0.0777943333067454
237	0xbfdedd16d193b4f6	-0.4822442099237628
238	0xbfeabddfd1e1b5d7	-0.8356780146838741
239	0x3faffcaecb08b5e1	0.06247469166224185
240	0xbfdcf675522fd7a3	-0.4525426199537554
241	0x3fe177914fad1ce9	0.5458456569839686
242	0xbfeecdcedc6f7a27	-0.9626230531101257
243	0xbfc066fa49387adf	-0.12814262938714813
244	0x3fcb0f52d1f6b201	0.2114051366055634
245	0x3fdb29db5ea162b6	0.4244297432065126
246	0x3f8e0fa86090f4c6	0.0146783022374798
247	0x3fe0ada381c01b04	0.521196130198263
248	0x3fd061f8456908b2	0.2559796026072362
249	0xbfdd83940c6ee112	-0.46115590299770404
250	0x3fcc4b743bb3b18c	0.2210526744378395
251	0xbfe30f5c2d0230f1	-0.5956250075410293
252	0x3fe3e39af094c5a8	0.6215338419771586
253	0x3fce624e54e82385	0.23737506051864102
254	0x3fd93c4c49935913	0.39430529770960837
255	0x3fce8d8f8983c7c4	0.23869508947933415

b2 f8 [10, 1]
0	0x3f7cb6bd2515ad04	0.007010210845105339
1	0x3f7cb6bd2515ad04	0.007010210845105339
2	0x3f7cb6bd2515ad04	0.007010210845105339
3	0x3f7cb6bd2515ad04	0.007010210845105339
4	0x3f7cb6bd2515ad04	0.007010210845105339
5	0x3f7cb6bd2515ad04	0.007010210845105339
6	0x3f7cb6bd2515ad04	0.007010210845105339
7	0x3f7cb6bd2515ad04	0.007010210845105339
8	0x3f7cb6bd2515ad04	0.007010210845105339
9	0x3f7cb6bd2515ad04	0.007010210845105339
